…
 slow.
Alphabet determined to be of regular style.
Unigrams and labels don't seem to agree.
0 (0.0%) records are longer then 40.0 seconds. Excluding them.
0 (0.0%) records are longer then 400 characters. Excluding them.
0 (0.0%) records are longer then 40.0 seconds. Excluding them.
5 (0.0%) records are longer then 400 characters. Excluding them.
Filtered 5(0.0%) records  from dataset
0 (0.0%) records are longer then 40.0 seconds. Excluding them.
5 (0.0%) records are longer then 400 characters. Excluding them.
Filtered 5(0.0%) records  from dataset
DeepSpeech2Model(
  (conv): Sequential(
    (0): Conv2d(1, 32, kernel_size=(41, 11), stride=(2, 2), padding=(20, 5))
    (1): BatchNorm2d(32, eps=1e-05, momentum=0.1, affine=True, track_running_stats=True)
    (2): ReLU()
    (3): Conv2d(32, 32, kernel_size=(21, 11), stride=(2, 2), padding=(10, 5))
    (4): BatchNorm2d(32, eps=1e-05, momentum=0.1, affine=True, track_running_stats=True)
    (5): ReLU()
    (6): Conv2d(32, 96, kernel_size=(21, 11), stride=(2, 1), padding=(10, 5))
    (7): BatchNorm2d(96, eps=1e-05, momentum=0.1, affine=True, track_running_stats=True)
    (8): ReLU()
  )
  (rnns): Sequential(
    (0): RNNwBatchNorm(
      (rnn): GRU(3072, 512, dropout=0.2, bidirectional=True)
      (norm): BatchNorm1d(512, eps=1e-05, momentum=0.1, affine=True, track_running_stats=True)
    )
    (1): RNNwBatchNorm(
      (rnn): GRU(512, 512, dropout=0.2, bidirectional=True)
      (norm): BatchNorm1d(512, eps=1e-05, momentum=0.1, affine=True, track_running_stats=True)
    )
    (2): RNNwBatchNorm(
      (rnn): GRU(512, 512, dropout=0.2, bidirectional=True)
      (norm): BatchNorm1d(512, eps=1e-05, momentum=0.1, affine=True, track_running_stats=True)
    )
    (3): RNNwBatchNorm(
      (rnn): GRU(512, 512, dropout=0.2, bidirectional=True)
      (norm): BatchNorm1d(512, eps=1e-05, momentum=0.1, affine=True, track_running_stats=True)
    )
    (4): RNNwBatchNorm(
      (rnn): GRU(512, 512, dropout=0.2, bidirectional=True)
      (norm): BatchNorm1d(512, eps=1e-05, momentum=0.1, affine=True, track_running_stats=True)
    )
    (5): RNNwBatchNorm(
      (rnn): GRU(512, 512, dropout=0.2, bidirectional=True)
      (norm): BatchNorm1d(512, eps=1e-05, momentum=0.1, affine=True, track_running_stats=True)
    )
  )
  (fc): Linear(in_features=512, out_features=28, bias=True)
  (softmax): Softmax(dim=2)
)
Trainable parameters: 27757148
Train Epoch: 1 [0/1000 (0%)] Loss: 6.702601
Train Epoch: 1 [50/1000 (5%)] Loss: 3.137794
Train Epoch: 1 [100/1000 (10%)] Loss: 3.031821
Train Epoch: 1 [150/1000 (15%)] Loss: 2.974061
Train Epoch: 1 [200/1000 (20%)] Loss: 2.940965
Train Epoch: 1 [250/1000 (25%)] Loss: 2.879833
Train Epoch: 1 [300/1000 (30%)] Loss: 2.873560
…
